…
n_count":11,"outputs":[]},{"cell_type":"code","source":["device = torch.device(\"cuda\" if torch.cuda.is_available() else \"cpu\")\n","model.to(device)"],"metadata":{"colab":{"base_uri":"https://localhost:8080/"},"id":"gxxJBqgKvX4h","executionInfo":{"status":"ok","timestamp":1744389911881,"user_tz":-180,"elapsed":480,"user":{"displayName":"Alina Mazoruk","userId":"05828642368613234013"}},"outputId":"478a2f88-cfd4-498e-8409-5ea1add81e73"},"execution_count":12,"outputs":[{"output_type":"execute_result","data":{"text/plain":["BertModel(\n","  (embeddings): BertEmbeddings(\n","    (word_embeddings): Embedding(30522, 768, padding_idx=0)\n","    (position_embeddings): Embedding(512, 768)\n","    (token_type_embeddings): Embedding(2, 768)\n","    (LayerNorm): LayerNorm((768,), eps=1e-12, elementwise_affine=True)\n","    (dropout): Dropout(p=0.1, inplace=False)\n","  )\n","  (encoder): BertEncoder(\n","    (layer): ModuleList(\n","      (0-11): 12 x BertLayer(\n","        (attention): BertAttention(\n","          (self): BertSdpaSelfAttention(\n","            (query): Linear(in_features=768, out_features=768, bias=True)\n","            (key): Linear(in_features=768, out_features=768, bias=True)\n","            (value): Linear(in_features=768, out_features=768, bias=True)\n","            (dropout): Dropout(p=0.1, inplace=False)\n","          )\n","          (output): BertSelfOutput(\n","            (dense): Linear(in_features=768, out_features=768, bias=True)\n","            (LayerNorm): LayerNorm((768,), eps=1e-12, elementwise_affine=True)\n","            (dropout): Dropout(p=0.1, inplace=False)\n","          )\n","        )\n","        (intermediate): BertIntermediate(\n","          (dense): Linear(in_features=768, out_features=3072, bias=True)\n","          (intermediate_act_fn): GELUActivation()\n","        )\n","        (output): BertOutput(\n","          (dense): Linear(in_features=3072, out_features=768, bias=True)\n","          (LayerNorm): LayerNorm((768,), eps=1e-12, elementwise_affine=True)\n","          (dropout): Dropout(p=0.1, inplace=False)\n","        )\n","      )\n","    )\n","  )\n","  (pooler): BertPooler(\n","    (dense): Linear(in_features=768, out_features=768, bias=True)\n","    (activation): Tanh()\n","  )\n",")"]},"metadata":{},"execution_count":12}]},{"cell_type":"markdown","source":["# AVERAGING"],"metadata":{"id":"DwV-HqfaeBi-"}},{"cell_type":"code","source":["def combine_features(row):\n","    return f\"{row['description']} {row['plot']}\"\n","\n","df['combined_text'] = df.apply(combine_features, axis=1)\n","df['
…
